app/src/main/assets/Ingredients.tflite (tflite, 272648 bytes, 6 tensors)

sequential/conv2d/BiasAdd/ReadVariableOp f4 [16]
0.008787225 0.024089092 0.0019789436 -0.015550356 -0.009847856 0.0022132986 0.0077482075 -0.015071316
-0.009350636 0.005892365 -0.001792974 -0.0020292564 0.001990489 -0.00047314347 0.014303501 -0.012551835
00000000: 4bf8 0f3c 7d56 c53c 2ab1 013b ecc6 7ebc
00000010: e758 21bc fd0c 113b ade4 fd3b aeed 76bc
00000020: 6933 19bc bd14 c13b 3902 ebba 46fd 04bb
00000030: dd72 023b 3e10 f8b9 3b59 6a3c 36a6 4dbc

sequential/conv2d_1/BiasAdd/ReadVariableOp f4 [32]
-0.008954821 -0.0033228314 -0.0071466095 -0.0052958964 -0.004107271 0.0056748674 -0.005246652 0.001807637
-0.013956878 0.005177957 -0.015722139 0.0047966503 0.0067252307 0.001607994 0.0045978096 0.0026242267
-0.01774644 0.010313487 -0.008267564 0.004293194 0.008566574 -0.0037344485 -0.0018900356 0.009479479
-0.0091314 0.011574949 0.0058083492 -0.0013259642 -0.008835669 -0.020003896 -0.012120871 -0.0013996296
00000000: 3eb7 12bc dcc3 59bb 1b2e eabb 3389 adbb
00000010: 4996 86bb 3df4 b93b 1bec abbb 3cee ec3a
00000020: 64ab 64bc daab a93b b7cb 80bc 382d 9d3b
00000030: 535f dc3b 53c3 d23a 39a9 963b 38fb 2b3b
00000040: fb60 91bc e6f9 283c ad74 07bc ecad 8c3b
00000050: d15a 0c3c a6bd 74bb 12bb f7ba d14f 1b3c
00000060: de9b 15bc dba4 3d3c f753 be3b facb adba
00000070: 7bc3 10bc 36df a3bc 9e96 46bc c773 b7ba

sequential/conv2d/Conv2D f4 [16, 3, 3, 1]
-0.14293405 -0.15620713 0.15178378 -0.09726863 0.14186755 0.18030289 0.1655044 -0.1181907
-0.12655446 -0.084788054 -0.084231794 -0.17818038 -0.12228956 0.0006899749 -0.10932138 -0.11538565
-0.10182725 0.10555274 -0.17772786 0.016699571 -0.064772755 0.10193654 0.07988229 0.18161221
-0.19200104 -0.18958537 0.056918934 0.11133872 0.020458885 0.15590243 0.07406225 0.11268346
0.013716623 -0.047830798 0.00941513 0.16105296 0.109562166 0.100047596 -0.11548208 0.011678492
0.039003797 0.0970039 0.03636046 -0.15267234 0.054166086 -0.16675472 -0.14676353 -0.047969054
0.12005803 -0.04919264 0.09628715 0.080271125 -0.07936667 0.17502618 -0.018259821 -0.059130087
0.04116083 0.057688087 -0.114470586 -0.01882227 -0.03524897 0.026651645 0.12859125 -0.049476475
0.012373455 -0.0029503186 0.101909764 0.16896518 -0.19649862 0.16383381 0.06380515 -0.06823216
-0.19796829 0.05585471 -0.027871162 0.12794901 -0.1866697 -0.15226515 -0.06843584 0.11306507
0.17011765 0.14472537 -0.19555488 0.14036946 -0.12628196 -0.05218533 -0.18492845 0.11044759
-0.08688787 -0.09946523 -0.14334765 0.04802133 -0.13825308 0.029799221 -0.06805195 0.18921715
0.016309317 0.07158431 0.17224324 -0.10869236 0.13377653 -0.0840925 0.12383438 -0.043518487
0.018012911 0.11044146 -0.04303959 0.012274545 0.015739614 0.00073592784 0.032732967 -0.12242892
0.013230476 -0.10081326 -0.1310388 -0.13834098 0.08916084 -0.13843746 -0.03901418 -0.04069529
0.09394651 -0.06747045 0.017547945 0.010633727 0.1773182 0.0074341814 -0.1653741 -0.1820312
0.14624356 -0.019559668 0.015988061 0.055178974 -0.05445825 0.03586144 -0.039119784 0.033553734
0.17221987 0.017827269 0.11553471 0.122364394 0.048379026 0.034616902 0.16205257 -0.10744301
00000000: 4e5d 12be c3f4 1fbe 356d 1b3e c734 c7bd
00000010: ba45 113e 52a1 383e fc79 293e f70d f2bd
00000020: 7e97 01be 5ca5 adbd b881 acbd eb74 36be
00000030: f372 fabd 6fdf 343a e3e3 dfbd 504f ecbd
00000040: ce8a d0bd 092c d83d 4bfe 35be 8acd 883c
00000050: 94a7 84bd 1bc4 d03d 5399 a33d 8df8 393e
00000060: ec9b 44be ab22 42be d423 693d 8e05 e43d
00000070: 6499 a73c e3a4 1f3e f3ad 973d 96c6 e63d
00000080: b0bb 603c 3aea 43bd eb41 1a3c 11eb 243e
00000090: 2162 e03d c1e5 cc3d de81 ecbd 2557 3f3c
000000a0: 72c2 1f3d fba9 c63d b5ee 143d 2356 1cbe
000000b0: 42dd 5d3d c0c1 2abe 2e49 16be 337b 44bd
000000c0: fce0 f53d 397e 49bd 3332 c53d 3065 a43d
000000d0: fe8a a2bd 103a 333e 9f95 95bc 6432 72bd
000000e0: 4298 283d 584a 6c3d 8e6f eabd 2931 9abc
000000f0: 3961 10bd 8d54 da3c 6dad 033e d8a7 4abd
00000100: 08ba 4a3c 225a 41bb 11b6 d03d 3505 2d3e
00000110: ef36 49be 0dc4 273e 46ac 823d 4dbd 8bbd
00000120: 33b8 4abe e9c7 643d 1052 e4bc 1105 033e
00000130: 5826 3fbe 65eb 1bbe 1728 8cbd a98e e73d
00000140: 5233 2e3e e332 143e 8a3f 48be 03bd 0f3e
00000150: 0f50 01be 49c0 55bd e25d 3dbe 5932 e23d
00000160: 45f2 b1bd 6db4 cbbd bac9 12be 04b2 443d
00000170: 3792 0dbe 7f1d f43c d25e 8bbd 24c2 413e
00000180: 1e9b 853c cb9a 923d 8860 303e 1a9a debd
00000190: b7fc 083e b038 acbd e19c fd3d 7140 32bd
000001a0: d08f 933c 222f e23d 484a 30bd 2c1b 493c
000001b0: 5df0 803c 48eb 403a 0113 063d 03bc fabd
000001c0: a3c4 583c 2f77 cebd 092f 06be 42a9 0dbe
000001d0: f599 b63d 8dc2 0dbe 55cd 1fbd 1bb0 26bd
000001e0: 0767 c03d f32d 8abd b5c0 8f3c 1539 2e3c
000001f0: e792 353e 6f9a f33b d457 29be 6366 3abe
00000200: dfc0 153e 993b a0bc 65f9 823c 5903 623d
00000210: 9d0f 5fbd 72e3 123d 113c 20bd a46f 093d
00000220: 685a 303e 7e0a 923c 769d ec3d 2f9a fa3d
00000230: 1629 463d 74ca 0d3d 1cf1 253e 150b dcbd

sequential/conv2d_1/Conv2D f4 [32, 3, 3, 16]
-0.0028658651 -0.10399189 -0.08424887 -0.06998583 -0.019668078 -0.01932363 0.10450414 0.008842086
0.09482127 -0.036650736 -0.09581884 -0.090660594 -0.028190002 -0.096112005 -0.05869442 -0.05732098
-0.11136078 0.062883094 0.074824415 -0.00969519 0.047993485 0.021379767 -0.042115413 -0.110765934
-0.0012518554 -0.06900497 0.04622112 0.02594564 -0.10398316 0.09213612 -0.10206491 0.0391481
-0.00012331325 -0.04665806 0.09517478 0.053509302 -0.0029745013 -0.016390905 0.118113846 -0.0248936
-0.061016236 -0.021805633 -0.042527262 -0.082921475 0.037734795 -0.010787384 0.115176834 0.10364846
0.04500452 0.033644237 -0.1136671 -0.0004336186 -0.10413858 -0.07976869 0.07387361 -0.019536683
0.06831639 -0.009894743 -0.04159915 -0.059731115 -0.054900974 0.045216843 -0.08972876 0.11011497
-0.06694807 0.026468728 -0.103652835 0.03449705 -0.08763899 -0.09495577 -0.07003406 0.056171875
-0.019149473 -0.088025816 -0.001364098 -0.010464981 0.00089040154 0.06652027 -0.07444077 0.04790199
0.054101385 -0.05447207 0.10102217 -0.052038703 -0.07682731 0.02185754 0.09047828 0.05042676
-0.091887176 0.08347101 -0.064940214 -0.12214461 0.022453113 0.11019463 0.04697994 -0.076384485
-0.09630365 0.014886191 -0.02597816 -0.04107568 0.014289118 0.06361452 -0.03457259 -0.024845948
0.09821554 -0.07164683 0.017719563 0.080014974 0.01514482 -0.10980228 -0.09445802 0.062130637
-0.059413306 0.10973432 -0.03980948 0.08265618 -0.122517444 0.0827642 0.05256177 0.024316441
0.045221385 0.09759381 -0.10013918 -0.059885975 0.08886389 0.0043139295 -0.03210735 0.095046304
0.07518608 0.052594673 -0.04145097 0.10620339 0.088989705 -0.05551022 -0.07957046 0.1004054
0.018487478 0.0479023 -0.08607317 -0.110044815 -0.103069074 0.011281652 0.09084836 -0.03838222
0.07935481 -0.10489344 0.023679947 0.08734524 -0.11898304 -0.041588783 -0.07165881 0.043052632
-0.046286643 -0.012621007 0.09392792 0.07440689 -0.05837842 -0.0169004 -0.056089096 -0.10637679
0.047689825 -0.06685701 0.0360104 -0.11867419 0.07371686 -0.032065876 -0.02883935 -0.0780662
0.0576849 0.067018226 0.054804478 -0.08842149 0.06134772 0.10522371 0.0141284345 -0.112744875
0.011962955 -0.052005813 0.022014698 0.020026494 0.07957411 -0.08213192 -0.05388919 0.10761599
-0.07714083 0.09479969 -0.10230687 -0.0689746 0.044568952 0.048718918 -0.09148179 -0.06726384
-0.027424159 -0.003936371 0.06724097 0.0707905 -0.092970446 -0.047179457 0.090068795 0.024966972
-0.07994517 -0.08444171 0.040878095 0.009142657 0.0017786946 -0.09066544 -0.062287327 0.049120113
0.02528159 0.0549077 0.10390673 0.07462288 0.011836831 0.073169075 -0.048201438 0.105583616
0.11350043 0.06734177 0.10167431 0.024329605 0.08809257 0.08963224 -0.004251143 -0.052241072
0.062287025 0.11714056 0.028635934 -0.050604455 -0.051517896 -0.064849645 -0.014847826 -0.087392524
0.09299665 -0.035959497 -0.10422957 -0.004103917 -0.0014072179 0.05529241 -0.10244994 -0.0124411415
-0.011505432 0.075152524 -0.019254804 -0.007304576 0.051362813 -0.017987495 0.02019836 -0.011393868
0.015158394 -0.06175859 0.030172752 0.0702707 0.08193625 0.035820793 0.0017279582 0.096040584
00000000: 3dd1 3bbb b3f9 d4bd ac8a acbd bb54 8fbd
00000010: f31e a1bc 974c 9ebc 4406 d63d 66de 103c
00000020: a731 c23d 151f 16bd ab3c c4bd 43ac b9bd
00000030: b8ee e6bc 5fd6 c4bd 8f69 70bd 67c9 6abd
00000040: 1f11 e4bd dac8 803d 8b3d 993d 93d8 1ebc
00000050: d194 443d 9f24 af3c 3681 2cbd 40d9 e2bd
00000060: 4c15 a4ba 7a52 8dbd 5b52 3d3d f38b d43c
00000070: 1ff5 d4bd ddb1 bc3d 6807 d1bd c259 203d
00000080: a64d 01b9 861c 3fbd ffea c23d 922c 5b3d
00000090: daef 42bb 3846 86bc ace5 f13d aaed cbbc
000000a0: 29ec 79bd baa1 b2bc 1131 2ebd bcd2 a9bd
000000b0: cd8f 1a3d 91bd 30bc d5e1 eb3d a545 d43d
000000c0: a956 383d 8ace 093d 4cca e8bd 4e57 e3b9
000000d0: 9c46 d5bd c45d a3bd 0c4b 973d 650b a0bc
000000e0: 77e9 8b3d 8f1d 22bc df63 2abd 9da8 74bd
000000f0: d8df 60bd 4c35 393d b6c3 b7bd f583 e13d
00000100: 121c 89bd f2d4 d83c f047 d4bd c74c 0d3d
00000110: 127c b3bd 2c78 c2bd 046e 8fbd 7b14 663d
00000120: 5bdf 9cbc e146 b4bd 89cb b2ba 5075 2bbc
00000130: d669 693a c83b 883d 6774 98bd e134 443d
00000140: 6a99 5d3d 1b1e 5fbd b6e4 ce3d 8926 55bd
00000150: a357 9dbd 950e b33c ad4c b93d 4a8c 4e3d
00000160: 582f bcbd d9f2 aa3d 60ff 84bd f426 fabd
00000170: 97ef b73c b9ad e13d 0a6e 403d 786f 9cbd
00000180: d93a c5bd 36e5 733c 26d0 d4bc f93e 28bd
00000190: e81c 6a3c 5448 823d fd9b 0dbd bb89 cbbc
000001a0: 3b25 c93d 93bb 92bd 9e28 913c e4de a33d
000001b0: fb21 783c 05e0 e0bd 3573 c1bd b27c 7e3d
000001c0: 5e5b 73bd 63bc e03d 440f 23bd a547 a93d
000001d0: 6dea fabd 4780 a93d 034b 573d 4633 c73c
000001e0: 0f3a 393d 43df c73d c515 cdbd ff4a 75bd
000001f0: 45fe b53d dd5b 8d3b ff82 03bd a3a7 c23d
00000200: 29fb 993d 836d 573d 7ec8 29bd 2a81 d93d
00000210: 3c40 b63d af5e 63bd d6f5 a2bd 59a1 cd3d
00000220: 0d73 973c 3435 443d 2147 b0bd 2d5f e1bd
00000230: e115 d3bd aed6 383c b40e ba3d ad36 1dbd
00000240: c684 a23d 5fd2 d6bd 73fc c13c 10e2 b23d
00000250: 61ad f3bd 0059 2abd dbc1 92bd f557 303d
00000260: 1097 3dbd 57c8 4ebc 485d c03d a462 983d
00000270: 361e 6fbd b572 8abc aebd 65bd 13dc d9bd
00000280: 6856 433d 54ec 88bd a47f 133d 740b f3bd
00000290: ddf8 963d 8257 03bd 8040 ecbc 2ce1 9fbd
000002a0: 0047 6c3d da40 893d a97a 603d 5316 b5bd
000002b0: bf47 7b3d 877f d73d f37a 673c c9e6 e6bd
000002c0: 4500 443c 0c04 55bd 2b58 b43c 9a0e a43c
000002d0: c0f7 a23d c834 a8bd e9ba 5cbd c665 dc3d
000002e0: 03fc 9dbd 5726 c23d 4486 d1bd 8e42 8dbd
000002f0: ef8d 363d 7d8d 473d ce5a bbbd a0c1 89bd
00000300: a1a8 e0bc acfc 80bb a2b5 893d 9cfa 903d
00000310: 4a67 bebd 3f3f 41bd fd75 b83d 8987 cc3c
00000320: 4bba a3bd c6ef acbd ca6f 273d 15cb 153c
00000330: 1623 e93a cdae b9bd ff20 7fbd 2c32 493d
00000340: 561b cf3c e5e6 603d 0dcd d43d e1d3 983d
00000350: 45ef 413c abd9 953d df6e 45bd 393c d83d
00000360: ea72 e83d 7bea 893d 9f3a d03d e14e c73c
00000370: e169 b43d 1c91 b73d 2c4d 8bbb bcfa 55bd
00000380: ae20 7f3d 64e7 ef3d e895 ea3c 9e46 4fbd
00000390: 6e04 53bd e4cf 84bd 4c44 73bc dafa b2bd
000003a0: 0775 be3d 444a 13bd 5076 d5bd 277a 86bb
000003b0: 6672 b8ba 4b7a 623d 46d1 d1bd eed5 4bbc
000003c0: 4881 3cbc 91e9 993d 40bc 9dbc 3a5b efbb
000003d0: d061 523d 835a 93bc 0877 a53c 59ad 3abc
000003e0: ea5a 783c 93f6 7cbd d92c f73c 16ea 8f3d
000003f0: 31ce a73d d3b8 123d a87c e23a edb0 c43d

sequential/dense/BiasAdd/ReadVariableOp f4 [10]
-0.0013312317 0.0017026342 0.0066104843 0.0014916606 -3.154681e-23 -0.005899318 -6.2848733e-16 -3.318604e-20
-3.14215e-08 -7.3549637e-20
00000000: b97c aeba ec2a df3a c39c d83b d383 c33a
00000010: 0f8d 189a 114f c1bb 2e26 35a6 76b7 1c9f
00000020: 4ef4 06b3 07aa ad9f

sequential/dense/MatMul f4 [10, 6272]
-0.021454053 -0.014082819 -0.03362432 0.009950546 0.005845771 0.025251288 -0.02530142 -0.0046976055
-0.030350277 0.024744418 0.026774129 -0.027486777 -0.029304102 0.0033609706 -0.014341282 0.0020974402
-0.010803661 0.006079726 0.013706962 0.037443552 -0.00555181 0.0061752424 -0.0229446 0.017891472
0.017388914 -0.021261748 -0.01611542 0.0074850055 -0.02651002 0.025699893 0.0252064 -0.0032776028
-0.03207485 -0.021834768 -0.001598717 -0.026148755 -0.020795414 0.008177423 -0.0071625393 0.0018185131
-0.012982442 0.014113638 0.007046095 0.022912014 0.0017861874 -0.014836639 -0.012890912 0.02565079
-0.024584439 0.0020940776 0.0042490037 -0.020941135 0.02164264 0.011734247 -0.0033090268 0.0021045469
0.016839268 -0.01904898 -0.0147321345 0.007525925 0.01768957 -0.010122477 0.025335077 -0.01033531
0.022749817 0.0035997008 0.013794987 -0.032943677 0.011807371 0.02808758 0.002709685 -0.018628309
-0.0316503 0.010362875 -0.011923897 0.015784431 -0.01569713 0.018625662 0.023082977 -0.00624267
-0.008715492 -0.008474669 -0.0045937076 0.024250843 0.016193321 0.011798953 0.024246547 0.011933448
-0.018811949 -0.013441152 -0.025560882 -0.020136204 0.014984552 -0.021910537 -0.0012391661 -0.0370245
0.026714133 -0.012096985 0.007532341 -0.0033273753 0.0064854547 0.0025028838 0.012623247 0.030756818
-0.027117537 0.018121265 -0.01856207 -0.022957446 0.0012988679 0.0026025758 0.018723773 0.024989948
0.020765286 -0.011817057 -0.008021533 -0.027089339 -0.017947959 0.004255217 -0.022086084 -0.027710065
0.012007597 -0.017082892 -0.023496777 -0.002148489 0.012877627 0.009781469 0.008761772 0.004269856
0.015417774 -0.0211524 0.016792234 -0.027838191 -0.024388874 0.008738369 0.027326977 0.029260619
-0.030660488 -0.0011274662 -0.02024066 -0.0074263345 -0.01516507 -0.02476374 0.011635664 0.006922153
-0.0135861235 -0.017754752 -0.010300705 0.0039479244 -0.019603407 0.027985312 0.028826 -0.0101562925
-0.016919317 -0.018128775 0.02544593 0.025745796 0.020451063 0.019176062 -0.010629715 -0.014568452
0.022099942 -0.0008333633 -0.0011988968 -0.011116601 0.017100697 0.016570989 -0.013653598 -0.006447067
0.014114048 -0.017449457 0.013863916 0.013474686 0.008832332 -0.019403031 -0.028362624 0.010659999
0.008283813 -0.0056409137 0.00013856748 0.0026657365 0.032118037 0.0031276366 0.0066200923 0.015451841
0.023160195 0.032450102 0.024532253 -0.0015634279 -0.0012928288 0.030639803 0.0008079916 0.0097437035
-0.01691456 0.021143142 0.027679527 -0.01608102 -0.015318116 0.010978742 0.0051393383 0.014570176
-0.018191589 -0.00534583 -0.028258959 -0.03164765 -0.022669652 -0.022056123 0.015806936 0.016718311
-0.0036860534 -0.031263575 -0.017168498 0.008818147 0.011005402 -0.01833165 0.0170891 -0.010788501
-0.026705768 0.020353585 -0.00050717127 -0.022970265 -0.016297631 -0.020951333 0.010032355 0.0013824926
-0.0075123673 -0.026465327 -0.022176651 -0.0034292298 0.01639124 0.03160304 -0.025488866 -0.03194379
0.00930801 0.021878501 0.011266071 -0.024370335 -0.02356091 0.008390242 -0.0016348609 0.009343276
-0.005510764 0.0232829 0.027138991 -0.017132178 -0.013482724 -0.018199226 -0.0087863775 -0.0007858477
-0.012555213 -0.02628696 0.026414987 -0.008845673 0.006061914 -0.018026162 -0.008709824 -0.019228723
00000000: 69c0 afbc a0bb 66bc a8b9 09bd 9d07 233c
00000010: e28d bf3b cadb ce3c ec44 cfbc 5fee 99bb
00000020: 25a1 f8bc ceb4 ca3c 6b55 db3c f32b e1bc
00000030: 280f f0bc bb43 5c3b b2f7 6abc 3575 093b
00000040: d701 31bc 7038 c73b 2a93 603c 695e 193d
00000050: f5eb b5bb b059 ca3b 50f6 bbbc 2391 923c
00000060: 3273 8e3c 1e2d aebc 7c04 84bc c744 f53b
00000070: 8b2b d9bc 9588 d23c a77d ce3c 0dcd 56bb
00000080: eb60 03bd d4de b2bc 0a8c d1ba ea35 d6bc
00000090: 255b aabc 99fa 053c bcb3 eabb 2d5b ee3a
000000a0: 4fb4 54bc e33c 673c eee2 e63b fab1 bb3c
000000b0: 811e ea3a 6015 73bc 6734 53bc 9b21 d23c
000000c0: 4e65 c9bc cb3c 093b 3a3b 8b3b be8c abbc
000000d0: e84b b13c 0041 403c 42dc 58bb 70ec 093b
000000e0: 81f2 893c 9b0c 9cbc 0d5f 71bc 099c f63b
000000f0: b8e9 903c bfd8 25bc 828b cf3c 6f55 29bc
00000100: d35d ba3c f5e8 6b3b 5f04 623c f3ef 06bd
00000110: b473 413c ed17 e63c f894 313b 659a 98bc
00000120: bfa3 01bd 0cc9 293c 735c 43bc 5a4e 813c
00000130: 4497 80bc d894 983c 8318 bd3c 508f ccbb
00000140: 6ccb 0ebc 57d9 0abc d086 96bb b4a9 c63c
00000150: dba7 843c 6550 413c b2a0 c63c 8284 433c
00000160: 841b 9abc 4738 5cbc 0e65 d1bc aef4 a4bc
00000170: c481 753c ba7d b3bc 846b a2ba 01a7 17bd
00000180: 99d7 da3c 6f32 46bc dbd1 f63b 1810 5abb
00000190: f083 d43b 6c07 243b bcd1 4e3c b9f5 fb3c
000001a0: 9925 debc 0c73 943c 7b0f 98bc 4111 bcbc
000001b0: c63e aa3a fa8f 2a3b 9962 993c b8b7 cc3c
000001c0: f61b aa3c 549c 41bc bf6c 03bc 76ea ddbc
000001d0: 9907 93bc 596f 8b3b e0ed b4bc 3800 e3bc
000001e0: 83bb 443c 6cf1 8bbc 507c c0bc aacd 0cbb
000001f0: affc 523c 7442 203c 898d 0f3c 26ea 8b3b
00000200: d59a 7c3c cc47 adbc de8f 893c eb0c e4bc
00000210: 2dcb c7bc 602b 0f3c d3dc df3c f7b3 ef3c
00000220: b42b fbbc 7dc7 93ba becf a5bc 9c58 f3bb
00000230: ea76 78bc 54dd cabc 83a3 3e3c 3ad3 e23b
00000240: 5598 5ebc 6a72 91bc 4ac4 28bc 975d 813b
00000250: 5397 a0bc 7441 e53c 8124 ec3c 9466 26bc
00000260: 619a 8abc cc82 94bc fc73 d03c d9e8 d23c
00000270: fd88 a73c 1e17 9d3c 4228 2ebc 84b0 6ebc
00000280: f00a b53c 1076 5aba 4d24 9dba 6722 36bc
00000290: c316 8c3c e2bf 873c 57b3 5fbc eb41 d3bb
000002a0: 9c3e 673c 2af2 8ebc 7a25 633c eec4 5c3c
000002b0: 7cb5 103c 1bf3 9ebc bc58 e8bc 47a7 2e3c
000002c0: d4b8 073c 6ad7 b8bb 6d4c 1139 a3b3 2e3b
000002d0: 348e 033d 09f9 4c3b 5ced d83b b829 7d3c
000002e0: 73ba bd3c 66ea 043d ddf7 c83c efeb ccba
000002f0: 2374 a9ba 5300 fb3c 66cf 533a 0ea4 1f3c
00000300: 6790 8abc 6234 ad3c 2dc0 e23c 58bc 83bc
00000310: d6f8 7abc 2ee0 333c e567 a83b bfb7 6e3c
00000320: 8706 95bc 132c afbb 557f e7bc f7a0 01bd
00000330: b5b5 b9bc 0baf b4bc 8c7d 813c d7f4 883c
00000340: b791 71bb 3c0e 00bd f3a4 8cbc fd79 103c
00000350: 0050 343c 422c 96bc 71fe 8b3c 41c2 30bc
00000360: 0ec6 dabc 90bc a63c b0f3 04ba 232c bcbc
00000370: 9c82 85bc 21a2 abbc bf5e 243c c134 b53a
00000380: 4e2a f6bb d0cd d8bc cfab b5bc eebc 60bb
00000390: ec46 863c 3072 013d 07ce d0bc 7ed7 02bd
000003a0: a080 183c 8b3a b33c 5495 383c 4ca4 c7bc
000003b0: cf02 c1bc 3a77 093c d448 d6ba 8a14 193c
000003c0: a493 b4bb c8bb be3c 9752 de3c c858 8cbc
000003d0: a5e6 5cbc 8b16 95bc bdf4 0fbc 5901 4eba
000003e0: 61b4 4dbc c057 d7bc 3e64 d83c 71ed 10bc
000003f0: 05a3 c63b 9aab 93bc a6b3 0ebc 8e85 9dbc
